data/ngcf_interaction_predictor/models/models09062024_2308_LP__loss_bce_tr_True_pcutoff_0.9_poswght_1_bs_16_layers_[16, 32]_nemb_52_lr_0.015_reg_0.005_messdr_0.01_nodedr_0.01_ucount_1000_bcount_500.pt (torch, 931598 bytes, 12 tensors)

u_g_embeddings f4 [1000, 100]
0.42850035 -0.56188184 1.4840189 0.28086674 1.192503 -0.07475281 -0.507361 1.644832
0.7434337 0.4478036 -0.03662467 -0.38443032 -0.6930823 0.5079909 0.2410335 1.234956
-0.29115295 -1.9606351 -0.3677245 0.06675 -1.3342406 0.22299507 -2.6557498 0.795001
-0.78969806 1.2301967 -0.13737474 0.4655481 -0.31236482 0.39873472 1.8382028 -0.023300296
0.09558599 0.28184667 -0.43540132 0.41268754 -0.56179506 0.34441665 -1.5322428 -1.1298918
-0.6144112 0.21602128 -0.15867113 -0.8416562 0.22513719 1.7397577 -0.84890753 -0.444743
0.40299892 0.35714072 0.44968694 0.08292113 -0.035313763 -0.031247767 0.9926515 -0.018214399
-0.032277334 -0.02196994 -0.015506468 -0.0086132 -0.062366437 -0.03458872 -0.025551058 -0.037275724
-0.009854727 -0.05281842 -0.0 -0.015275869 -0.20615648 -0.20022917 -0.31469518 -0.011900237
-0.026917983 -0.046884157 -0.03197665 -0.03963765 -0.46774122 -0.23336047 -0.34041408 -0.21363354
-0.02035254 -0.18909933 -0.0025838835 -0.11541664 -0.19244006 -0.22663574 -0.010315739 -0.23243023
-0.1164813 -0.008078962 -0.031911056 -0.011904274 -0.024529587 -0.014075319 -0.009918559 -0.3125671
-0.012231943 -0.2629488 -0.05190385 -0.023536177 1.7909749 0.20725065 0.61851245 0.46446237
0.55875474 -0.08621143 -1.4706327 1.3054098 -1.5813106 -0.09771954 1.4214754 -1.096152
-0.7983328 0.5710486 0.047919355 0.5930256 1.1272161 0.32300517 -1.0417968 -0.56320494
-0.59850025 0.68406296 -0.3120046 -0.32792994 0.40117085 -0.08859567 0.1544781 -0.012248767
0.01254819 -3.2925825 -0.24579974 0.60541445 2.533645 0.24745332 0.5154293 0.47112587
0.1069161 -0.25104463 -0.45453316 -2.7373903 -0.07634569 1.6442568 -0.44031093 -0.37551165
1.0429786 0.030249175 0.2370884 0.104105785 -0.26531932 0.75025463 0.52677184 0.52215225
0.14558995 0.043221675 -0.0041933856 -0.0064474326 -0.010758436 0.98813856 -0.0042014057 -0.0046177944
-0.008302299 -0.011740483 -0.0049303635 -0.0033604493 -0.0030262137 -0.0030172202 -0.004345831 -0.00493092
0.009280151 -0.0011295716 0.004910458 -0.016040888 -0.002128895 -0.00025540122 0.4915996 -0.0029510125
-0.0033571252 0.20965195 -0.004063125 -0.0077379434 -0.007183388 -0.0034170882 -0.012623158 -0.0026112292
-0.0070990315 -0.0023176884 -0.00216937 -0.007873554 0.30932188 -0.0030886224 -0.00071375427 -0.0199029
0.29640085 -0.011683822 0.7275667 -0.0040598437 -0.009521093 -0.0038265288 -0.0 -0.0017220888
-0.13808495 -1.0878824 0.2953131 -0.67113537 1.1797707 0.37162027 0.38921297 0.39619142
0.088261195 1.261162 -0.195253 -0.44793132 -0.14313214 -1.3355491 -1.4745562 0.82337266
-0.46158624 -0.6186959 1.7078571 0.5197741 0.3657473 -1.9589585 0.8808977 0.28758383
-0.15173136 0.65653443 1.1039879 -0.34569308 -0.37715784 -0.19444779 -0.94915664 -0.025858743
-0.49564812 0.85198975 1.3628808 -1.3113916 1.0521322 -0.37550566 -0.20015544 -1.2768905
-0.7915848 0.61650777 0.016006328 -0.09316427 1.1245292 -0.8720539 -0.015965704 -2.45911
-0.47517157 1.2174153 0.122110054 0.5749754 -0.0064387224 -0.007725286 0.61910766 -0.0076443204
00000000: 6664 db3e 7dd7 0fbf 55f4 bd3f c4cd 8f3e
00000010: f0a3 983f 0018 99bd 69e2 01bf db89 d23f
00000020: ac51 3e3f 8346 e53e c003 16bd 0dd4 c4be
00000030: d76d 31bf b10b 023f 7cd1 763e 0a13 9e3f
00000040: 0012 95be 17f6 fabf 6346 bcbe 39b4 883d
00000050: 65c8 aabf d258 643e cef7 29c0 2f85 4b3f
00000060: a729 4abf 1677 9d3f f7ab 0cbe 525c ee3e
00000070: 48ee 9fbe f526 cc3e 3b4a eb3f 43e0 bebc
00000080: 96c2 c33d 354e 903e ecec debe c84b d33e
00000090: cdd1 0fbf 6157 b03e 8820 c4bf 4ba0 90bf
000000a0: 0d4a 1dbf af34 5d3e af7a 22be c876 57bf
000000b0: 5d8a 663e 61b0 de3f 0152 59bf 5bb5 e3be
000000c0: e055 ce3e 26db b63e 5e3d e63e 8ed2 a93d
000000d0: 2aa5 10bd 51fb ffbc 691e 7e3f 5d36 95bc
000000e0: 3d35 04bd 4efa b3bc d70e 7ebc 611e 0dbc
000000f0: f373 7fbd e7ac 0dbd 7450 d1bc 6eae 18bd
00000100: b975 21bc 2158 58bd 0000 0080 a347 7abc
00000110: af1a 53be e008 4dbe ba1f a1be 36f9 42bc
00000120: 1a83 dcbc 9a09 40bd f3f9 02bd 175b 22bd
00000130: c77b efbe 0cf6 6ebe c14a aebe c0c2 5abe
00000140: 5fba a6bc 41a3 41be 5f56 29bb 8f5f ecbd
00000150: 020f 45be 3313 68be 5803 29bc 3102 6ebe
00000160: bf8d eebd 9f5d 04bc 2bb5 02bd 250a 43bc
00000170: 46f2 c8bc 2b9c 66bc 7481 22bc cc08 a0be
00000180: 7d68 48bc 3aa1 86be 2299 54bd f1ce c0bc
00000190: aa3e e53f 8439 543e d556 1e3f 03ce ed3e
000001a0: 8d0a 0f3f 9e8f b0bd b13d bcbf ab17 a73f
000001b0: 6368 cabf 2f21 c8bd e8f2 b53f b54e 8cbf
000001c0: 8a5f 4cbf 3e30 123f 1647 443d 87d0 173f
000001d0: 9e48 903f ef60 a53e 9959 85bf 332e 10bf
000001e0: 5037 19bf c01e 2f3f 11bf 9fbe 6fe6 a7be
000001f0: 4466 cd3e a671 b5bd 822f 1e3e 0daf 48bc
00000200: ec96 4d3c acb9 52c0 edb2 7bbe 71fc 1a3f
00000210: 3d27 2240 6764 7d3e 2df3 033f 6937 f13e
00000220: d4f6 da3d ec88 80be 92b8 e8be 6731 2fc0
00000230: 215b 9cbd 0277 d23f 6f70 e1be 1043 c0be
00000240: 5380 853f 1ecd f73c 4dc7 723e 6a35 d53d
00000250: efd7 87be b010 403f 85da 063f c5ab 053f
00000260: 8815 153e 3609 313d ab68 89bb fc44 d3bb
00000270: 2744 30bc a6f6 7c3f f2ab 89bb de50 97bb
00000280: 5e06 08bc 285b 40bc e38e a1bb fc3a 5cbb
00000290: 7153 46bb 8ebc 45bb 7967 8ebb 8e93 a1bb
000002a0: c60b 183c 220e 94ba e8e7 a03b 2e68 83bc
000002b0: ee84 0bbb 5fe7 85b9 f1b2 fb3e c665 41bb
000002c0: 3703 5cbb 00af 563e f623 85bb 938e fdbb
000002d0: a062 ebbb 3af1 5fbb 5dd1 4ebc 2821 2bbb
000002e0: fe9e e8bb 5ce4 17bb fd2b 0ebb 1400 01bc
000002f0: 705f 9e3e 7c6a 4abb 3d1b 3bba 680b a3bc
00000300: dac1 973e 806d 3fbc d041 3a3f 7008 85bb
00000310: 5cfe 1bbc 80c6 7abb 0000 0080 b6b7 e1ba
00000320: 2466 0dbe bb3f 8bbf 4733 973e 87cf 2bbf
00000330: ba02 973f 0345 be3e ec46 c73e 9ad9 ca3e
00000340: 49c2 b43d c26d a13f 67f0 47be 4157 e5be
00000350: 3b91 12be 46f3 aabf 42be bcbf 8dc8 523f
00000360: 0855 ecbe db62 1ebf 109b da3f ea0f 053f
00000370: 3b43 bb3e 27bf fabf 8382 613f 303e 933e
00000380: 775f 1bbe a412 283f 7a4f 8d3f affe b0be
00000390: d51a c1be 521d 47be eefb 72bf b7d5 d3bc
000003a0: 97c5 fdbe 001c 5a3f e172 ae3f aedb a7bf
000003b0: 45ac 863f 4742 c0be 8cf5 4cbe 2671 a3bf
000003c0: 4da5 4abf 74d3 1d3f b41f 833c e9cc bebd
000003d0: 93f0 8f3f ed3e 5fbf 82ca 82bc 0f62 1dc0
000003e0: b049 f3be 44d4 9b3f d614 fa3d 9631 133f
000003f0: ebfb d2bb 6524 fdbb d77d 1e3f 357d fabb

i_g_embeddings f4 [500, 100]
-0.2575637 -0.21603484 0.85702944 -0.48917347 -0.72327983 -1.3300782 0.5639336 -1.3315749
-0.22362624 0.79166555 -0.7794243 -0.66952443 0.17438316 0.21342637 0.3039913 -0.10349106
1.4163858 0.16335237 0.31369433 0.76305616 0.10236895 -0.3736325 0.31927308 -0.29890168
0.7121935 -0.75554204 -0.021338474 -0.21512157 -0.6318504 -0.065875724 -0.38935804 -0.41135827
-0.64627206 -0.44218406 -1.1979337 -0.71269786 -0.28608182 0.13590236 -0.44920492 0.10779147
0.8735789 -0.2695655 -0.17423776 0.21965145 0.27421993 0.15834664 -0.20220023 1.447851
-0.509834 -0.43628284 -0.01151856 0.044533193 -0.054817703 -0.036110405 0.98007154 -0.030244324
-0.068367794 -0.031793777 -0.073917754 -0.036191206 -0.070726044 -0.021285446 -0.033409722 -0.07324492
-0.060860638 -0.062247965 -0.024945455 -0.040497873 -0.09058117 -0.08285373 -0.13903862 0.33471993
-0.008476408 -0.009983906 -0.005195584 -0.014352868 -0.18862414 -0.10235493 -0.1318338 -0.098201655
0.36102948 -0.08371977 0.3434757 -0.047110382 -0.08687832 -0.09943689 0.19988921 -0.10488942
-0.048109695 0.25795832 -0.006688296 0.50344634 -0.003014183 0.30859 -0.0018199626 -0.13191746
0.085779406 -0.1067488 -0.01779107 -0.008105614 0.37814647 1.2325419 -1.2916995 -0.20866361
-0.9331185 0.31642136 -0.047517672 -0.7707072 0.32197714 -0.41933712 -0.22418268 0.16159853
0.74824935 -0.26578894 0.33080524 0.7758139 -0.25209942 0.7711869 -0.14420153 0.33123857
-0.06858035 0.0033734485 1.5291547 -0.82889247 0.19594091 -0.25709936 0.7350036 -0.5594219
-0.1809744 -0.033120297 -0.825034 0.6537109 -0.13516867 -0.41382623 -0.47705603 -0.3697447
-0.22858016 -0.1425839 0.07004682 0.046604652 -0.3718303 0.06466514 0.5828949 0.6863244
-0.07238959 0.25916943 1.0121796 -0.041552495 1.0884726 0.34257674 0.9217515 0.3164965
-0.015571074 -0.019798538 0.9967827 -0.024771364 -0.023814311 -0.020985633 -0.013183635 -0.029055074
-0.018535279 -0.02315665 -0.016510712 -0.024163507 -0.026026547 -0.020968312 -0.0041779242 -0.016728392
-0.1361095 -0.124613695 -0.20888549 0.30654404 -0.012925432 -0.01392274 -0.0070807906 -0.021875074
-0.28357965 -0.15404998 -0.19884811 -0.1476042 0.32989293 -0.12638164 0.31374586 -0.071121536
-0.13059852 -0.14960362 0.12058904 -0.15806702 -0.07227729 0.17958649 -0.009474742 0.4174293
-0.004238059 0.27749792 -0.002447305 -0.19815977 -0.0006264485 -0.16038395 -0.027187102 -0.012063163
-0.3274579 -0.48520046 0.080820985 0.4470412 -0.693051 0.115751 0.63314086 -0.87154126
0.6866119 0.08377379 -1.1412917 -0.13459727 -0.38828245 0.047018945 1.9892392 -0.00995081
0.42210996 0.18111178 -0.39833945 -0.40618795 0.5157957 0.3451773 0.62005407 0.36235845
1.0868973 0.5043601 0.75809234 -0.05033884 0.943837 0.07041248 0.056165412 0.055684414
-0.4009348 1.3708246 0.6349012 1.427163 0.895285 0.91026807 -0.27482882 0.18780774
-0.87899846 0.45201504 -0.0063436334 0.83463824 -0.015785472 0.30936712 0.28571975 -0.41875106
-0.77576095 -0.17173538 -0.37708423 0.08857219 -0.08418085 -0.16171965 -0.14542061 -0.18127084
00000000: 64df 83be 3d38 5dbe 4866 5b3f f274 fabe
00000010: de28 39bf 0140 aabf f45d 103f 0c71 aabf
00000020: 47fe 64be 98aa 4a3f 5a88 47bf f465 2bbf
00000030: 8091 323e 718c 5a3e bfa4 9b3e 1ff3 d3bd
00000040: 214c b53f d845 273e 8b9c a03e a657 433f
00000050: d0a6 d13d c24c bfbe c377 a33e a409 99be
00000060: 5052 363f 346b 41bf 06ce aebc d448 5cbe
00000070: f3c0 21bf dae9 86bd f059 c7be 8d9d d2be
00000080: 1672 25bf f365 e2be e455 99bf 5e73 36bf
00000090: 5179 92be fd29 0b3e 30fe e5be c6c1 dc3d
000000a0: dea2 5f3f 7d04 8abe 626b 32be 4fec 603e
000000b0: 8e66 8c3e 9f25 223e 940d 4fbe 2e53 b93f
000000c0: 7b84 02bf 7760 dfbe 58b8 3cbc 7068 363d
000000d0: 8788 60bd 81e8 13bd f8e5 7a3f f2c2 f7bc
000000e0: 6a04 8cbd 313a 02bd 3162 97bd 3b3d 14bd
000000f0: d1d8 90bd d15e aebc a2d8 08bd 6f01 96bd
00000100: 0149 79bd b9f7 7ebd 695a ccbc 19e1 25bd
00000110: 9f82 b9bd 37af a9bd 2460 0ebe 6960 ab3e
00000120: a2e0 0abc 8993 23bc b83f aabb 4b28 6bbc
00000130: b026 41be 769f d1bd 71ff 06be f31d c9bd
00000140: dbd8 b83e 4575 abbd 0cdc af3e d1f6 40bd
00000150: 43ed b1bd 91a5 cbbd c2af 4c3e 44d0 d6bd
00000160: ac0e 45bd 1d13 843e 7e29 dbbb dce1 003f
00000170: 9989 45bb 82ff 9d3e d08b eeba 5f15 07be
00000180: 1dad af3d 1d9f dabd 94be 91bc 69cd 04bc
00000190: 6a9c c13e efc3 9d3f 6956 a5bf eaab 55be
000001a0: dbe0 6ebf fb01 a23e e4a1 42bd 114d 45bf
000001b0: 30da a43e 5bb3 d6be 2590 65be 167a 253e
000001c0: 458d 3f3f 7d15 88be 4e5f a93e bd9b 463f
000001d0: 2d13 81be 816c 453f 91a9 13be 1a98 a93e
000001e0: db73 8cbd 1315 5d3b 57bb c33f 4c32 54bf
000001f0: bca4 483e 87a2 83be 3229 3c3f 4636 0fbf
00000200: 5a51 39be 26a9 07bd 6e35 53bf 9959 273f
00000210: a869 0abe 08e1 d3be b040 f4be 2d4f bdbe
00000220: eb10 6abe 8401 12be b574 8f3d 85e4 3e3d
00000230: 8b60 bebe 286f 843d 9a38 153f f5b2 2f3f
00000240: fe40 94bd dbb1 843e 1a8f 813f f332 2abd
00000250: 1253 8b3f 3866 af3e e8f7 6b3f d40b a23e
00000260: d11d 7fbc 8b30 a2bc 272d 7f3f 51ed cabc
00000270: 3b16 c3bc 10ea abbc 2c00 58bc e804 eebc
00000280: 4cd7 97bc 04b3 bdbc 7941 87bc 8cf2 c5bc
00000290: a035 d5bc bdc5 abbc f8e6 88bb fb09 89bc
000002a0: 4a60 0bbe 7735 ffbd 14e6 55be 57f3 9c3e
000002b0: 31c5 53bc 341c 64bc fa05 e8bb 5b33 b3bc
000002c0: 5a31 91be 47bf 1dbe d79e 4bbe 8e25 17be
000002d0: bae7 a83e 306a 01be 4ca3 a03e 2ba8 91bd
000002e0: 9ebb 05be b131 19be 63f7 f63d 52dc 21be
000002f0: 1e06 94bd 85e5 373e f33b 1bbc 4bb9 d53e
00000300: 6adf 8abb 3514 8e3e f762 20bb 65ea 4abe
00000310: 3f38 24ba b13b 24be 7cb7 debc 93a4 45bc
00000320: 90a8 a7be 326c f8be 7985 a53d 96e2 e43e
00000330: ca6b 31bf dc0e ed3d 8515 223f 541d 5fbf
00000340: ccc5 2f3f 9891 ab3d d915 92bf ded3 09be
00000350: f5cc c6be f096 403d 649f fe3f b908 23bc
00000360: cc1e d83e 5e75 393e 26f3 cbbe def7 cfbe
00000370: 300b 043f 14bb b03e ddbb 1e3f 0c87 b93e
00000380: 731f 8b3f be1d 013f 5712 423f 1930 4ebd
00000390: 4d9f 713f 6b34 903d b40d 663d 5715 643d
000003a0: 5347 cdbe 2e77 af3f e388 223f 47ad b63f
000003b0: 6631 653f 5407 693f 5db6 8cbe ac50 403e
000003c0: 0b06 61bf 846e e73e 41de cfbb daaa 553f
000003d0: 8950 81bc 5e65 9e3e dc49 923e 8a66 d6be
000003e0: 4598 46bf 66db 2fbe 2f11 c1be 5665 b53d
000003f0: 0267 acbd d699 25be 24e9 14be 109f 39be

weight_dict.user_embedding f4 [1000, 52]
0.42864645 -0.5619773 1.4835725 0.2809505 1.1935138 -0.07473368 -0.5073628 1.6450009
0.74332935 0.44800264 -0.036868423 -0.38456178 -0.6930682 0.5081031 0.2408208 1.2350976
-0.29124668 -1.9607458 -0.3673493 0.066802666 -1.3341806 0.223261 -2.6557841 0.7947857
-0.789803 1.2302551 -0.13748176 0.46539026 -0.31209925 0.39858276 1.838094 -0.023232443
0.0956216 0.28182262 -0.43546304 0.41284066 -0.5620999 0.34430096 -1.5325238 -1.1301519
-0.6140478 0.21603991 -0.15870418 -0.8417901 0.22502872 1.7397381 -0.8491468 -0.4448322
0.40285861 0.35709524 0.44946814 0.082926996 1.7911001 0.20723747 0.6184619 0.464425
0.55898184 -0.08612219 -1.4704863 1.3055167 -1.5813631 -0.09773592 1.4215276 -1.0961157
-0.7983413 0.57104504 0.047907528 0.5929436 1.1272669 0.32296696 -1.0416987 -0.5631813
-0.5984123 0.6840056 -0.3119952 -0.32785976 0.4010909 -0.08864664 0.15443033 -0.012236314
0.012532447 -3.2924442 -0.24585022 0.60543334 2.5335722 0.24755137 0.51542926 0.4711227
0.10694973 -0.25106785 -0.45454532 -2.7372847 -0.07624989 1.6443096 -0.4403739 -0.37552068
1.0429718 0.030244743 0.23711456 0.103995405 -0.26534468 0.75015473 0.5266397 0.5222371
-0.13810529 -1.088165 0.29501495 -0.6710416 1.1800692 0.3713784 0.3894039 0.396202
0.08830935 1.26116 -0.19544683 -0.44807044 -0.14330317 -1.3354462 -1.4749252 0.82338
-0.46149912 -0.61915934 1.707925 0.5199572 0.36571667 -1.9587516 0.8810328 0.28773436
-0.1517659 0.6564993 1.1038243 -0.34566498 -0.37714782 -0.19447456 -0.94900936 -0.02576965
-0.4958302 0.85212237 1.3626537 -1.3112793 1.0521541 -0.3755584 -0.20005426 -1.276871
-0.7914059 0.61678255 0.015960181 -0.09302233 1.1245182 -0.8719972 -0.0160955 -2.4591608
-0.47522822 1.2172405 0.12204391 0.5749981 0.2532464 0.8784518 0.73074347 -0.9902171
-0.2239315 0.68406206 0.1519919 2.3674357 -0.16362624 0.16278762 0.60653746 -0.58530825
0.13406602 0.98059595 -0.57756746 -0.380923 0.42302626 -1.5703746 -1.096826 -0.8593408
0.5413222 0.33557844 0.7106988 1.0591568 -1.358937 0.25597262 1.046141 -0.20028023
-0.78917676 -1.1851696 0.22170965 1.1855799 -0.4959227 0.28782436 1.5400476 -1.0976514
0.6850172 0.18643264 -0.2506515 0.20135789 -0.8027124 0.7038603 -0.93032384 1.3224471
1.5049591 0.43645844 0.35310197 -0.99526817 1.0560825 -0.951968 -0.29657748 -1.0059942
-0.8599396 1.0490085 0.97149324 0.38005394 1.1212924 -0.13857646 0.79115474 3.0638433
-0.21024852 -0.57431144 0.50407046 -0.901486 -0.16318396 -0.5384122 -0.62058145 0.84969413
-1.0341234 0.13885227 0.20261167 0.17510024 0.1529892 -0.4261463 -1.0775836 0.1514572
0.6292297 0.11192831 -0.2468051 0.34693417 1.3349966 -0.7866892 -1.0047019 -0.510627
-1.5644578 0.37932354 0.63363236 -0.49941677 -1.0487018 -0.13769266 0.8839782 -1.8568616
-0.18736996 -0.27286193 0.76741886 -0.5822085 -0.0857589 0.9805802 -0.36302972 0.100572206
00000000: 8c77 db3e bfdd 0fbf b4e5 bd3f bed8 8f3e
00000010: 0fc5 983f f90d 99bd 87e2 01bf 648f d23f
00000020: d54a 3e3f 9a60 e53e 5803 17bd 48e5 c4be
00000030: eb6c 31bf 0b13 023f ba99 763e ae17 9e3f
00000040: 491e 95be b8f9 fabf 3515 bcbe d6cf 883d
00000050: 6ec6 aabf 889e 643e 5ef8 29c0 1377 4b3f
00000060: 8830 4abf 0079 9d3f 05c8 0cbe a247 ee3e
00000070: 79cb 9fbe 0a13 cc3e aa46 eb3f f751 bebc
00000080: 42d5 c33d 0e4b 903e 03f5 debe da5f d33e
00000090: c7e5 0fbf 3748 b03e bd29 c4bf d1a8 90bf
000000a0: 3d32 1dbf 9139 5d3e 5983 22be 8e7f 57bf
000000b0: ee6d 663e bdaf de3f af61 59bf 0cc1 e3be
000000c0: 7c43 ce3e 30d5 b63e b020 e63e a1d5 a93d
000000d0: c542 e53f 0f36 543e 8553 1e3f 1dc9 ed3e
000000e0: 6f19 0f3f d560 b0bd e538 bcbf 2c1b a73f
000000f0: 1b6a cabf c529 c8bd 9ef4 b53f 854d 8cbf
00000100: 1860 4cbf 0230 123f af3a 443d 27cb 173f
00000110: 484a 903f ed5b a53e 6256 85bf a62c 10bf
00000120: 8c31 19bf fe1a 2f3f d6bd 9fbe 3cdd a7be
00000130: c95b cd3e 5f8c b5bd fc22 1e3e d27a 48bc
00000140: e554 4d3c 68b7 52c0 29c0 7bbe aefd 1a3f
00000150: 0c26 2240 1b7e 7d3e 2cf3 033f ff36 f13e
00000160: 7608 db3d f78b 80be 2aba e8be ac2f 2fc0
00000170: e728 9cbd bd78 d23f b078 e1be 3f44 c0be
00000180: 1a80 853f d3c3 f73c 29ce 723e 8bfb d43d
00000190: 42db 87be 240a 403f dcd1 063f 55b1 053f
000001a0: 796b 0dbe fe48 8bbf 330c 973e 62c9 2bbf
000001b0: 820c 973f 4f25 be3e f35f c73e fdda ca3e
000001c0: 88db b43d b16d a13f 3723 48be 7d69 e5be
000001d0: 11be 12be e7ef aabf 59ca bcbf 08c9 523f
000001e0: 9d49 ecbe 3a81 1ebf 499d da3f ea1b 053f
000001f0: 373f bb3e 5fb8 fabf 5e8b 613f eb51 933e
00000200: 8568 1bbe 5710 283f 1d4a 8d3f 00fb b0be
00000210: 8519 c1be 5724 47be 47f2 72bf df1a d3bc
00000220: 75dd fdbe b124 5a3f 706b ae3f 00d8 a7bf
00000230: fcac 863f 3149 c0be 06db 4cbe 8270 a3bf
00000240: 9499 4abf 76e5 1d3f edbe 823c 7e82 bebd
00000250: 36f0 8f3f 353b 5fbf b6da 83bc e462 1dc0
00000260: 1d51 f3be 89ce 9b3f 28f2 f93d 1333 133f
00000270: 83a9 813e 38e2 603f 0112 3b3f de7e 7dbf
00000280: 4d4e 65be b11e 2f3f c4a3 1b3e 1184 1740
00000290: a38d 27be ccb1 263e 0a46 1b3f c3d6 15bf
000002a0: 9a48 093e 5608 7b3f 76db 13bf 5708 c3be
000002b0: e696 d83e 0902 c9bf cb64 8cbf c2fd 5bbf
000002c0: 1794 0a3f f0d0 ab3e 5bf0 353f 7392 873f
000002d0: a6f1 adbf d80e 833e f3e7 853f 4316 4dbe
000002e0: 7d07 4abf a3b3 97bf db07 633e 15c1 973f
000002f0: 95e9 fdbe b75d 933e 4820 c53f d77f 8cbf
00000300: 4a5d 2f3f 33e8 3e3e 6555 80be c330 4e3e
00000310: 8f7e 4dbf 3030 343f b429 6ebf f245 a93f
00000320: 80a2 c03f 7b77 df3e c8c9 b43e e5c9 7ebf
00000330: b62d 873f 2db4 73bf 01d9 97be 6bc4 80bf
00000340: 0025 5cbf e945 863f c8b3 783f 6e96 c23e
00000350: 8286 8f3f fde6 0dbe 1e89 4a3f 0216 4440
00000360: 634b 57be 1306 13bf c30a 013f c9c7 66bf
00000370: b219 27be 62d5 09bf 6dde 1ebf 8e85 593f
00000380: 285e 84bf 4a2f 0e3e 6f79 4f3e 7a4d 333e
00000390: 33a9 1c3e d92f dabe 42ee 89bf 9917 1b3e
000003a0: 3315 213f ab3a e53d 7aba 7cbe 5ba1 b13e
000003b0: 2be1 aa3f 7764 49bf 129a 80bf 73b8 02bf
000003c0: 2740 c8bf b236 c23e bb35 223f 8eb3 ffbe
000003d0: dc3b 86bf 4eff 0cbe 654c 623f a4ad edbf
000003e0: e9dd 3fbe 8fb4 8bbe 9075 443f 9e0b 15bf
000003f0: 5da2 afbd 4e07 7b3f 08df b9be cdf8 cd3d

weight_dict.item_embedding f4 [500, 52]
-0.2599783 -0.2161207 0.85668963 -0.48913303 -0.72226226 -1.3314886 0.56366664 -1.3307759
-0.22316413 0.792093 -0.77890056 -0.67087996 0.17384636 0.21227045 0.30352557 -0.10205518
1.4167207 0.16219893 0.3139448 0.76422673 0.10268091 -0.37168664 0.319279 -0.298641
0.7140808 -0.75575006 -0.022256803 -0.21341613 -0.63225055 -0.06666462 -0.38984445 -0.41179532
-0.6458631 -0.44083148 -1.1984867 -0.7135903 -0.28671145 0.13720003 -0.44933584 0.107181996
0.87335896 -0.26827818 -0.17245527 0.22093864 0.27430552 0.15718155 -0.20164469 1.4481677
-0.5085517 -0.43661982 -0.009402764 0.043590996 0.37816235 1.2363621 -1.28858 -0.20980681
-0.9360908 0.31344208 -0.0467667 -0.77341044 0.3225008 -0.4200094 -0.22617292 0.16375318
0.7497547 -0.2622279 0.33454996 0.7706378 -0.24712081 0.7671237 -0.14572391 0.33364052
-0.06758145 0.001091517 1.5318611 -0.8299387 0.19934599 -0.25609484 0.73566186 -0.5548625
-0.18411623 -0.03633145 -0.8275253 0.65273666 -0.13649884 -0.41431788 -0.47676024 -0.37249607
-0.22267899 -0.14545618 0.07208815 0.04198353 -0.3679822 0.05917882 0.5822371 0.68616027
-0.07228105 0.2600192 1.016717 -0.03917716 1.0879638 0.33942413 0.92339265 0.31962156
-0.32740742 -0.4851996 0.08084106 0.44705042 -0.6930291 0.1157435 0.633126 -0.87146366
0.68662643 0.08375145 -1.1413049 -0.13461865 -0.38828257 0.04704431 1.9892192 -0.009944135
0.42208526 0.1811368 -0.3983379 -0.40619203 0.5158081 0.3451564 0.6200675 0.36234725
1.0869036 0.5043612 0.7581018 -0.05033909 0.94383705 0.07040176 0.05618611 0.055671442
-0.40092182 1.3708618 0.63489634 1.4271353 0.8953244 0.9102651 -0.27483445 0.18778515
-0.8790165 0.4520065 -0.0063083903 0.8346368 -0.015797867 0.30936083 0.28572562 -0.41876382
-0.7757734 -0.17173806 -0.37707567 0.08857618 0.5640985 -0.6773682 -0.2790651 0.15722495
-0.94454014 0.6818343 0.5007197 -2.4493048 -0.23698735 0.92092246 0.83816385 0.29931882
-0.647357 -0.40155533 1.2194182 0.62231535 -0.18652882 0.49692732 -0.7602609 1.454539
-0.1334829 0.617675 -0.56215227 0.33877477 0.35417524 -0.07404352 -0.3782672 0.069914795
0.5402359 0.2998416 0.31469426 0.7360583 0.6079944 0.025198659 -0.1766749 1.0583973
-0.8986652 0.34422803 -0.25849488 -0.1743866 0.011694467 -0.00047041842 -0.54010993 -0.15613699
-0.29932877 -0.46489367 0.41561842 0.1990385 0.8164893 -1.3158641 0.020989452 0.10345019
-0.06462006 0.3704923 0.47436374 1.2000266 -0.63373834 0.13001189 0.3269962 -0.4513483
-1.0414882 0.7684204 -0.614214 -0.3893326 0.27480257 -0.2984535 0.2610096 -0.07683677
-0.31828147 0.24410003 -0.1380403 0.23123957 0.53420013 0.052798297 -0.11290633 0.22440308
-0.75351197 -0.40453556 -0.4405612 1.08767 0.05664861 0.82542425 0.18870968 -0.58358544
-0.04879381 -0.20161921 0.6276846 -1.6967665 0.28992462 0.06757158 -0.28882486 0.41974646
0.36154598 1.2064419 -0.41560453 0.14447245 0.91299015 -0.5541576 -1.040293 0.32149073
00000000: e01b 85be bf4e 5dbe 0350 5b3f a56f fabe
00000010: 2ee6 38bf 386e aabf 754c 103f dd56 aabf
00000020: 2385 64be 9bc6 4a3f 0766 47bf cabe 2bbf
00000030: c804 323e 6d5d 593e b467 9b3e 4e02 d1bd
00000040: 1b57 b53f 7a17 263e 5fbd a03e 5da4 433f
00000050: 5e4a d23d b64d bebe 8978 a33e 79e7 98be
00000060: 00ce 363f d678 41bf e653 b6bc c289 5abe
00000070: 2cdb 21bf 7687 88bd b199 c7be d6d6 d2be
00000080: 4957 25bf aab4 e1be 0368 99bf dbad 36bf
00000090: d8cb 92be 2a7e 0c3e 590f e6be 3c82 db3d
000000a0: 7494 5f3f c25b 89be 1d98 30be bd3d 623e
000000b0: c671 8c3e 33f4 203e f27b 4ebe 8f5d b93f
000000c0: 7230 02bf a28c dfbe 0d0e 1abc 798c 323d
000000d0: 7f9e c13e 1d41 9e3f 30f0 a4bf 99d7 56be
000000e0: a6a3 6fbf 7b7b a03e 708e 3fbd 3afe 45bf
000000f0: d31e a53e 790b d7be e099 67be eaae 273e
00000100: edef 3f3f bc42 86be 224a ab3e 8548 453f
00000110: 3d0d 7dbe 3862 443f a638 15be eed2 aa3e
00000120: 2568 8abd 3c11 8f3a 0614 c43f dd76 54bf
00000130: 5b21 4c3e dd1e 83be 5654 3c3f 780b 0ebf
00000140: f788 3cbe 49d0 14bd b3d8 53bf c019 273f
00000150: 5ac6 0bbe 7921 d4be eb19 f4be ceb7 bebe
00000160: f605 64be 77f2 14be f4a2 933d ecf6 2b3d
00000170: 2a68 bcbe 7e65 723d 7e0d 153f 33a8 2f3f
00000180: 1608 94bd 3d21 853e c823 823f 3b78 20bd
00000190: 6642 8b3f 00c9 ad3e 7663 6c3f 70a5 a33e
000001a0: f2a1 a7be 156c f8be ff8f a53d cbe3 e43e
000001b0: 5b6a 31bf ee0a ed3d 8c14 223f 3e18 5fbf
000001c0: c0c6 2f3f e185 ab3d 4716 92bf 79d9 09be
000001d0: f9cc c6be 89b1 403d bc9e fe3f baec 22bc
000001e0: 8f1b d83e ed7b 393e f2f2 cbbe 67f8 cfbe
000001f0: 000c 043f 57b8 b03e bebc 1e3f 9485 b93e
00000200: a81f 8b3f d11d 013f f612 423f 5d30 4ebd
00000210: 4e9f 713f cc2e 903d 6823 663d bd07 643d
00000220: a045 cdbe 6678 af3f 9188 223f 5fac b63f
00000230: fb33 653f 2207 693f 1ab7 8cbe c04a 403e
00000240: 3a07 61bf 656d e73e 9db6 cebb c2aa 553f
00000250: 876a 81bc 8b64 9e3e a14a 923e 3668 d6be
00000260: 1699 46bf 1adc 2fbe 1010 c1be 6e67 b53d
00000270: c268 103f 0168 2dbf 9fe1 8ebe 94ff 203e
00000280: 62cd 71bf b18c 2e3f 2b2f 003f 69c1 1cc0
00000290: d0ac 72be 93c1 6b3f e891 563f 5140 993e
000002a0: 30b9 25bf a998 cdbe e515 9c3f 0f50 1f3f
000002b0: 6901 3fbe 426d fe3e 75a0 42bf 552e ba3f
000002c0: beaf 08be f31f 1e3f 36e9 0fbf e373 ad3e
000002d0: 7556 b53e 21a4 97bd 3dac c1be 7d2f 8f3d
000002e0: e64c 0a3f d784 993e 9b1f a13e 516e 3c3f
000002f0: 85a5 1b3f 6b6d ce3c 44ea 34be 9079 873f
00000300: ec0e 66bf a83e b03e 7159 84be 6792 32be
00000310: 269a 3f3c 7ea2 f6b9 a544 0abf 60e2 1fbe
00000320: 9f41 99be 8b06 eebe f0cb d43e c0d0 4b3e
00000330: 7105 513f 3c6e a8bf 12f2 ab3c b1dd d33d
00000340: 8657 84bd 2bb1 bd3e cedf f23e 799a 993f
00000350: ad3c 22bf d621 053e 0c6c a73e 2017 e7be
00000360: 7c4f 85bf 33b7 443f 213d 1dbf 9a56 c7be
00000370: ecb2 8c3e e6ce 98be 0da3 853e 995c 9dbd
00000380: caf5 a2be 5cf5 793e 705a 0dbe 11ca 6c3e
00000390: 57c1 083f 0743 583d 6f3b e7bd ecc9 653e
000003a0: 29e6 40bf 491f cfbe 3d91 e1be c538 8b3f
000003b0: 5f08 683d 014f 533f 1c3d 413e db65 15bf
000003c0: 05dc 47bd 4475 4ebe f0af 203f a52f d9bf
000003d0: 0071 943e f862 8a3d dae0 93be 02e9 d63e
000003e0: 8e1c b93e b06c 9a3f 1eca d4be 96f0 133e
000003f0: b9b9 693f 46dd 0dbf 5228 85bf 6f9a a43e

weight_dict.W_gc_0 f4 [52, 16]
-2.3646693 -1.7309067 0.32381922 0.9073009 -1.3818573 2.971765 -1.2444471 -1.8345978
-0.2321445 -1.8518214 -1.9334497 2.5908165 1.9276124 -3.9826722 -0.8381338 1.8959448
1.2652762 0.54328954 0.450641 0.45867532 -0.1515379 -0.32965383 -1.4907825 1.2771758
-3.734537 -4.365857 2.1840131 -2.1086476 -0.55568665 0.89091736 0.18936577 2.2076824
-2.447372 -1.8552984 0.15747225 2.6719623 -0.41934913 1.3772398 -0.8988079 2.0573328
-0.82130665 0.01394367 0.56060493 -2.6195827 -0.61392605 0.484596 -0.45864788 0.2719231
-2.28745 1.1759889 -0.32584482 -1.1424767 -0.1544638 0.8316457 1.0222367 -1.8555464
-0.5181745 0.240675 -0.7800495 -1.9753201 1.9675987 -5.2254605 2.6192474 1.3817735
-2.3421297 0.19293916 2.621879 -4.1279564 1.0937347 0.51090795 -0.21813932 1.1944556
-1.8573126 2.4254577 0.5406053 0.21221718 -2.5782545 -2.4170625 2.0782764 -2.2536297
0.75567305 0.9375508 0.9805017 -1.1267833 -0.5105418 0.9374808 2.6253076 -2.02636
1.3888962 -1.9702199 -2.239466 -2.206473 0.09429347 4.833825 -0.075953834 -0.29395026
-0.04155361 -0.33615395 0.9589268 0.7797405 0.9735551 -0.28413 -0.2856901 -1.0002717
-0.9866342 -0.771615 -0.18190266 -1.8470607 -3.01226 1.5632048 0.32446712 2.642057
-0.5546683 1.9052341 5.828572 1.6369324 5.9462576 -0.06734866 3.0708015 -0.7287555
-0.9475606 -0.6231213 0.84880924 -0.12420721 1.6728919 -2.0732884 1.473151 -0.7869935
-0.5656289 1.0333928 0.2513004 1.4606574 0.13838446 -1.6798836 -1.2208666 0.3689729
1.3114803 0.47287592 -0.61052066 1.021833 -2.5833316 -2.111959 1.9963336 2.4725196
-0.78148043 0.49230903 -0.2857173 0.01747987 -0.91753507 -1.2131568 -0.6968092 -1.8568288
0.90756935 -1.1590832 2.6404774 1.6970034 3.8438513 0.21960424 2.0025775 -2.3986392
0.32499775 -0.5432806 0.4837516 -0.29485574 -0.77927744 2.0366662 5.9369826 -1.6233312
1.4060732 -1.2958789 1.9472842 -0.06887269 1.4141138 3.949386 -0.7336324 0.73405296
-2.028324 -4.572976 -0.2641917 -2.555875 0.39937347 -0.8328137 0.7718063 1.5980633
-1.6936965 3.034478 1.4307822 0.3881073 -1.6822225 -1.193545 -0.011660517 0.0071982993
-1.3681206 -0.9625721 0.17160562 -0.9640221 0.6915366 1.6305758 4.3901725 -0.88040054
0.7965026 0.44992927 0.26421854 -0.39677402 -0.9806478 -0.24460444 -1.7879188 -1.5827019
1.8235506 -1.2341969 -0.7455962 -1.8369521 -0.2817506 2.0809634 1.653239 5.548351
-1.5250012 -1.8806964 0.5290426 0.009181063 0.020284941 2.9939685 -0.39137584 -0.17685921
0.5864766 1.6478132 -3.6571512 1.9592371 -1.2657907 0.015053726 3.1755583 0.21758483
-1.3744053 -0.6352604 -0.41335297 -1.2615844 1.1729337 -3.7403734 -3.2820199 -0.336164
0.28296086 -2.3629155 -0.43884787 -0.79041564 -0.4001116 1.0052933 -0.2392436 -1.5224805
2.17202 -1.7332745 2.0013547 1.0504031 0.10804861 -2.7985115 1.2566463 1.2654426
00000000: be56 17c0 5a8e ddbf a2cb a53e df44 683f
00000010: b3e0 b0bf 6631 3e40 0b4a 9fbf 1ad4 eabf
00000020: 4ab7 6dbe 7c08 edbf 487b f7bf f0cf 2540
00000030: 01bc f63f 1ae4 7ec0 f08f 56bf 52ae f23f
00000040: 92f4 a13f 0615 0b3f 6bba e63e 7ed7 ea3e
00000050: c02c 1bbe 63c8 a8be f6d1 bebf 7f7a a33f
00000060: a702 6fc0 1ab5 8bc0 dfc6 0b40 15f4 06c0
00000070: 7b41 0ebf 2913 643f 1ae9 413e ab4a 0d40
00000080: bea1 1cc0 6b7a edbf 6840 213e 6e01 2b40
00000090: eeb4 d6be 6549 b03f 4618 66bf 57ab 0340
000000a0: 2741 52bf fe73 643c ce83 0f3f 3ea7 27c0
000000b0: 422a 1dbf f81c f83e e5d3 eabe 8139 8b3e
000000c0: 9565 12c0 ce86 963f 22d5 a6be ad3c 92bf
000000d0: c22b 1ebe bce6 543f a7d8 823f 8b82 edbf
000000e0: 16a7 04bf 8273 763e 53b1 47bf 4ad7 fcbf
000000f0: 46da fb3f f936 a7c0 c0a1 2740 f4dd b03f
00000100: 74e5 15c0 d891 453e decc 2740 3818 84c0
00000110: 80ff 8b3f ddca 023f ea5f 5fbe ece3 983f
00000120: 6bbc edbf b33a 1b40 1c65 0a3f 764f 593e
00000130: 1f02 25c0 27b1 1ac0 7b02 0540 783b 10c0
00000140: ca73 413f 5403 703f 2902 7b3f 6f3a 90bf
00000150: deb2 02bf befe 6f3f 0a05 2840 e2af 01c0
00000160: 5ac7 b13f 2a30 fcbf 6953 0fc0 db36 0dc0
00000170: ef1c c13d b2ae 9a40 af8d 9bbd a680 96be
00000180: 1e34 2abd 5f1c acbe 3a7c 753f 139d 473f
00000190: e83a 793f 7d79 91be f945 92be e708 80bf
000001a0: 0f94 7cbf 9088 45bf b144 3abe 7c6c ecbf
000001b0: dec8 40c0 1817 c83f 8e20 a63e 7617 2940
000001c0: befe 0dbf b6de f33f a983 ba40 0087 d13f
000001d0: be47 be40 18ee 89bd 0388 4440 b88f 3abf
000001e0: 5593 72bf e184 1fbf 904b 593f 5a60 febd
000001f0: 5221 d63f c2b0 04c0 3690 bc3f 6878 49bf
00000200: 0ecd 10bf 3746 843f 72aa 803e d2f6 ba3f
00000210: a8b4 0d3e 6d06 d7bf 5b45 9cbf 04ea bc3e
00000220: 96de a73f cb1c f23e 154b 1cbf 6ccb 823f
00000230: 4e55 25c0 562a 07c0 dc87 ff3f c33d 1e40
00000240: 1a0f 48bf ee0f fc3e 8a49 92be f231 8f3c
00000250: 94e3 6abf b948 9bbf 1662 32bf 91ac edbf
00000260: 7756 683f d75c 94bf 95fd 2840 6837 d93f
00000270: a901 7640 efdf 603e 3b2a 0040 4e83 19c0
00000280: 1b66 a63e 7014 0bbf 4aae f73e 55f7 96be
00000290: ba7e 47bf bd58 0240 c3fb bd40 51c9 cfbf
000002a0: 35fa b33f 5cdf a5bf 9c40 f93f 200d 8dbd
000002b0: ae01 b53f bdc2 7c40 55cf 3bbf e5ea 3b3f
000002c0: 0fd0 01c0 d255 92c0 2244 87be 7593 23c0
000002d0: ae7a cc3e 4733 55bf 1995 453f 578d cc3f
000002e0: 0ccb d8bf e334 4240 df23 b73f 00b6 c63e
000002f0: 1153 d7bf 15c6 98bf c10b 3fbc b6df eb3b
00000300: 931e afbf 206b 76bf 62b9 2f3e 27ca 76bf
00000310: 8b08 313f b5b6 d03f 4b7c 8c40 ee61 61bf
00000320: 98e7 4b3f 215d e63e a747 873e f725 cbbe
00000330: bc0b 7bbf 9679 7abe 86da e4bf fa95 cabf
00000340: 1b6a e93f 2afa 9dbf 64df 3ebf 3f21 ebbf
00000350: 9d41 90be 812e 0540 569d d33f 178c b140
00000360: 3d33 c3bf a9ba f0bf 566f 073f 2b6c 163c
00000370: 9b2c a63c 2e9d 3f40 6a62 c8be 951a 35be
00000380: 5523 163f 8beb d23f c40e 6ac0 48c8 fa3f
00000390: 6e05 a2bf e7a3 763c 593c 4b40 8fce 5e3e
000003a0: 83ec afbf 6da0 22bf 00a3 d3be 997b a1bf
000003b0: b122 963f 4762 6fc0 9d0c 52c0 b01d acbe
000003c0: 3fe0 903e 023a 17c0 abb0 e0be ae58 4abf
000003d0: 6ddb ccbe 73ad 803f 46fc 74be a4e0 c2bf
000003e0: 6002 0b40 f0db ddbf 3216 0040 9c73 863f
000003f0: 9748 dd3d d01a 33c0 c9d9 a03f 06fa a13f

weight_dict.b_gc_0 f4 [1, 16]
-4.915714 -1.495418 8.738367 -3.2931433 -5.089439 -1.5344182 -1.1079636 -2.94498
0.97385854 -5.6496596 -1.1637669 0.637764 -2.1381283 -0.6037637 0.8785912 -0.96462995
00000000: 874d 9dc0 db69 bfbf 5ad0 0b41 dcc2 52c0
00000010: afdc a2c0 d167 c4bf c0d1 8dbf 8d7a 3cc0
00000020: cb4e 793f 03ca b4c0 50f6 94bf 8044 233f
00000030: 18d7 08c0 4290 1abf 5aeb 603f fdf1 76bf

weight_dict.W_bi_0 f4 [52, 16]
3.1487138 -5.2418895 -9.730019 -0.73080975 -1.77101 2.3084557 -1.6790762 -0.38461146
-2.2158713 -3.1770878 -4.298214 -0.33898613 -4.287068 -1.2965783 -4.085784 -0.36807638
-2.2055147 -5.8288336 -7.0224338 -0.3035926 2.5930474 0.6795729 -1.139968 -4.1828337
-0.7865189 -0.17350458 -1.0414646 -4.3259478 -2.4883265 2.1672766 -3.6661186 -2.234613
-3.655271 0.7327366 -8.643927 1.3002461 1.403791 0.14771731 -3.1918023 0.61872977
-1.7155714 -2.5588536 -0.9131904 -2.673706 -5.333192 -2.3884094 -3.350168 -0.2656325
-1.0014515 -6.8212132 -7.3633423 -2.6904318 -4.8793015 0.81359005 -4.80025 0.0792193
0.68209195 -1.1958874 -2.834318 0.11639313 -3.0475476 -3.8144054 0.8511853 -4.2625694
2.301506 3.451876 -11.72009 5.886857 15.942546 1.4938749 1.4002104 -0.69492185
5.7170815 4.5666356 -0.5796418 9.647853 6.011878 9.579339 -1.8457934 2.0149431
-2.5163028 -3.305316 -5.6815085 -3.3798883 -0.9228342 0.0068631046 -5.0016575 -0.6369165
-3.0701137 1.4583057 -2.402476 -2.438748 -4.9038587 -6.399914 -4.3709574 -1.724246
1.6470635 -1.165217 -8.920116 -0.6794931 2.1339808 -2.4472322 -2.0961483 -2.6278002
-2.5320728 0.4300427 -8.149542 0.64966685 -0.3376654 -1.203612 -1.8963953 -5.377386
4.2853627 3.7983563 -8.744692 2.7435222 14.569243 5.911689 3.1334774 5.642927
10.348481 3.5463746 4.711169 15.898241 3.0627966 8.7307005 0.8457276 6.025903
2.3488257 0.6202326 -8.175941 -4.442107 -4.9011345 -1.2549514 -0.41696355 -3.310303
-5.5852213 -1.6026481 -3.15978 -0.3588107 -0.2615465 -0.22982147 -2.019513 -2.7051876
-0.27137163 -3.305827 -7.286491 -1.6678262 3.1517591 0.3406225 -3.0609756 0.46947688
-2.5619988 -0.90870404 -3.0745363 -4.797537 -0.39254525 -3.243633 -0.36814088 -1.9774433
-0.1394411 -1.5617726 -9.092694 -4.454902 1.9636045 3.9735463 -5.9658165 -1.9114084
-1.3333312 1.3456863 -2.05429 0.41918838 -7.1092362 -2.2951055 -3.2660825 -0.9418362
1.6554725 -2.832884 -9.75172 -4.0942445 -2.7700727 5.4736085 0.54312164 -4.1032696
1.8464439 2.850343 -8.843472 0.09505995 -4.128892 -0.6569471 -2.439049 -3.4947362
-0.7395401 -6.6582394 -8.637889 -3.5156028 2.7874775 1.5610335 0.3681139 -2.9877677
-1.812398 -2.2232387 -0.913274 0.52886724 -0.2344593 -2.0491798 -2.0504577 -1.9224373
-2.1138892 -1.615114 -7.4427238 3.0434182 0.7358399 -0.12814513 -4.7048707 -0.07839808
3.9344447 2.366105 -4.705997 0.8313526 -5.8387733 -0.6264079 -2.2633026 -4.067132
2.266077 -2.545617 -9.709792 4.2457814 13.901506 2.1870844 6.0999513 3.2880008
1.6225853 1.8732107 -0.84440416 1.3526529 2.529328 -1.9795166 -1.7768041 0.914722
-1.0285169 -3.7903883 -8.131258 -3.4140203 2.9786825 2.2948878 -3.5939376 2.389753
5.021244 2.474122 -1.531102 7.3455615 -3.9047384 2.0357168 -2.0295699 1.3771363
00000000: 8784 4940 8fbd a7c0 28ae 1bc1 5916 3bbf
00000010: 75b0 e2bf bdbd 1340 f8eb d6bf cbeb c4be
00000020: d6d0 0dc0 6855 4bc0 f88a 89c0 978f adbe
00000030: a92f 89c0 47f6 a5bf bebe 82c0 8274 bcbe
00000040: 2727 0dc0 ce85 bac0 c7b7 e0c0 7d70 9bbe
00000050: 7df4 2540 7df8 2d3f 79ea 91bf c6d9 85c0
00000060: 4d59 49bf 2fab 31be b64e 85bf 2a6e 8ac0
00000070: be40 1fc0 a9b4 0a40 b0a1 6ac0 e603 0fc0
00000080: f6ef 69c0 a094 3b3f 864d 0ac1 776e a63f
00000090: 6caf b33f 3543 173e 7d46 4cc0 1365 1e3f
000000a0: d897 dbbf 42c4 23c0 d9c6 69bf 001e 2bc0
000000b0: 82a9 aac0 b3db 18c0 2769 56c0 fc00 88be
000000c0: 902f 80bf 6147 dac0 80a0 ebc0 0930 2cc0
000000d0: 3d23 9cc0 7047 503f a69b 99c0 ba3d a23d
000000e0: 949d 2e3f d712 99bf 7765 35c0 855f ee3d
000000f0: 050b 43c0 381f 74c0 48e7 593f f866 88c0
00000100: e04b 1340 89eb 5c40 7d85 3bc1 2261 bc40
00000110: ab14 7f41 4b37 bf3f 183a b33f 66e6 31bf
00000120: 55f2 b640 e121 9240 6863 14bf 9b5d 1a41
00000130: 4e61 c040 f944 1941 f542 ecbf d4f4 0040
00000140: 1b0b 21c0 4c8a 53c0 ebce b5c0 1750 58c0
00000150: dd3e 6cbf e5e3 e03b 940d a0c0 f60c 23bf
00000160: be7c 44c0 c3a9 ba3f 2bc2 19c0 7214 1cc0
00000170: 69ec 9cc0 18cc ccc0 e2de 8bc0 18b4 dcbf
00000180: fad2 d23f d525 95bf ccb8 0ec1 43f3 2dbf
00000190: 2493 0840 749f 1cc0 4b27 06c0 e12d 28c0
000001a0: 7b0d 22c0 8f2e dc3e 8664 02c1 9150 263f
000001b0: 7be2 acbe f50f 9abf 15bd f2bf 8c13 acc0
000001c0: b121 8940 4518 7340 42ea 0bc1 de95 2f40
000001d0: 9f1b 6941 8e2c bd40 e58a 4840 dc92 b440
000001e0: 6193 2541 cdf7 6240 e5c1 9640 325f 7e41
000001f0: dc04 4440 f3b0 0b41 9b81 583f 33d4 c040
00000200: 2953 1640 90c7 1e3f a8d0 02c1 be25 8ec0
00000210: 18d6 9cc0 3fa2 a0bf 3f7c d5be 01dc 53c0
00000220: 22ba b2c0 9323 cdbf d639 4ac0 09b6 b7be
00000230: 6ce9 85be 5256 6bbe b33f 01c0 cb21 2dc0
00000240: 39f1 8abe ab92 53c0 ef2a e9c0 547b d5bf
00000250: 6cb6 4940 1366 ae3e 06e7 43c0 465f f03e
00000260: caf7 23c0 d4a0 68bf 34c5 44c0 6c85 99c0
00000270: b1fb c8be af97 4fc0 f67c bcbe dd1c fdbf
00000280: a6c9 0ebe 2ae8 c7bf ad7b 11c1 8f8e 8ec0
00000290: 6457 fb3f 954e 7e40 f8e7 bec0 08a9 f4bf
000002a0: 99aa aabf 733f ac3f 7d79 03c0 dc9f d63e
000002b0: dd7e e3c0 02e3 12c0 7f07 51c0 2d1c 71bf
000002c0: 86e6 d33f f94d 35c0 0c07 1cc1 0d04 83c0
000002d0: df48 31c0 cd27 af40 050a 0b3f fc4d 83c0
000002e0: 4658 ec3f 056c 3640 dc7e 0dc1 cbae c23d
000002f0: e21f 84c0 af2d 28bf 6119 1cc0 c2a9 5fc0
00000300: 8052 3dbf 4c10 d5c0 cb34 0ac1 a3ff 60c0
00000310: 0866 3240 f2cf c73f 6d79 bc3e 9637 3fc0
00000320: a8fc e7bf 8b49 0ec0 53cc 69bf d863 073f
00000330: 1916 70be c325 03c0 b33a 03c0 6d12 f6bf
00000340: f649 07c0 0ebc cebf cb2a eec0 5dc7 4240
00000350: 0160 3c3f 7a38 03be 4d8e 96c0 2c8f a0bd
00000360: f1cd 7b40 446e 1740 8797 96c0 86d3 543f
00000370: 3bd7 bac0 455c 20bf f3d9 10c0 f225 82c0
00000380: 6807 1140 64eb 22c0 4f5b 1bc1 71dd 8740
00000390: 926c 5e41 31f9 0b40 cd32 c340 9b6e 5240
000003a0: e0b0 cf3f 5ec5 ef3f df2a 58bf bb23 ad3f
000003b0: 83e0 2140 cd60 fdbf 516e e3bf 392b 6a3f
000003c0: 71a6 83bf b995 72c0 a219 02c1 4f7f 5ac0
000003d0: bca2 3e40 71df 1240 1303 66c0 b7f1 1840
000003e0: 08ae a040 0458 1e40 26fb c3bf d70e eb40
000003f0: 3ce7 79c0 2f49 0240 79e4 01c0 0146 b03f

weight_dict.b_bi_0 f4 [1, 16]
-4.136892 -1.1062168 8.442567 -3.001605 -5.7806606 -1.5139717 -0.83366394 -3.3035562
1.9094954 -5.379378 -2.1350732 0.5729333 -2.304371 -0.30051154 0.22298984 -0.7835023
00000000: 6b61 84c0 8398 8dbf c114 0741 4c1a 40c0
00000010: 2cfb b8c0 d3c9 c1bf 006b 55bf 776d 53c0
00000020: 586a f43f dd23 acc0 0aa5 08c0 c2ab 123f
00000030: d17a 13c0 a6dc 99be 7357 643e 9b93 48bf

weight_dict.W_gc_1 f4 [16, 32]
-1.0209311 0.011870081 -1.4873488 -1.455644 1.7253562 -0.53224605 0.09322478 -0.47819036
-2.9342778 -2.6001318 -3.226994 -0.53592783 -0.1788162 -2.3715374 -0.5115993 -0.79557806
-0.4307129 -2.2904198 -0.52345926 -1.4296572 -1.0814198 -0.46121338 -0.64726686 -4.325981
-1.1311249 -3.352218 0.9122053 -4.0363936 -1.2917284 -3.4229617 -0.8363061 0.16922702
-0.5166449 -0.7840434 0.3635349 -1.3901767 -1.801188 0.7635642 0.821191 -0.3741022
1.1303729 -0.36491913 -1.9521612 -2.846023 -0.059090603 -1.5913289 -2.0329988 -0.43478665
-0.04968027 0.38071078 -0.20141561 0.03938347 -1.3286744 -1.7509544 0.07479936 -0.7002482
-0.5403056 -0.38691476 -0.591926 -1.4449879 -1.4835947 -0.9016024 0.49008864 -0.17944089
-0.13740829 -0.39697647 -0.62098825 5.230887 0.7344661 -3.2859945 -2.522901 0.8500887
-0.27908307 -0.3094875 1.2051135 1.3752275 6.2139053 0.5718606 5.658942 0.6442215
0.6362303 -0.028041104 4.600821 1.3585768 -0.13631512 5.50597 -1.9397757 9.241189
-1.4482809 5.3218255 -0.8331102 -0.72223514 5.3434434 -0.27248812 0.7883762 0.39745075
-0.6459817 -0.28987715 -1.5531331 -0.41111317 0.28083822 -0.7658655 0.6410252 0.48108098
0.23970734 -1.1814378 0.30703226 -0.40045357 -0.23100208 -2.0067902 -1.135219 -0.8341761
0.26559022 -1.2694042 -0.45915636 -2.4425602 -0.008126853 -0.90471417 -0.82808495 0.76122785
1.013258 -0.69898874 0.54750776 -2.6757786 -0.17471696 -1.5652014 1.0369912 -0.027965626
-2.923576 -6.6614203 -4.9271927 -10.599377 -2.2920117 -2.2235115 -1.3427622 -2.7224882
-20.88946 -4.184518 -20.966175 -1.0849926 -11.457183 -2.9303775 -8.019724 -5.06536
-1.3193262 -4.3705893 -6.5868425 -2.816677 -4.2907214 -9.39715 -1.5058972 -17.006693
-2.085678 -9.835745 1.0889615 -9.69984 -6.92158 -11.4378195 -4.3641148 -0.8245254
-1.6369807 -1.4665982 -1.5980953 0.5748966 -3.12071 -2.1024094 -1.718892 -0.6306451
-2.404165 -1.5809208 -1.4379727 -0.7995742 -0.06444058 -2.0546935 0.056669876 -0.19705242
-1.0164611 -0.6226399 -1.2504071 0.34536818 -0.029297445 -0.25668854 -0.5572054 0.28189182
-0.9423426 0.23689875 -0.8726105 -0.9495028 -0.97406983 -0.9663599 -0.5928758 -0.6711107
-0.5073539 -0.7259221 -0.59607524 -1.214596 -1.1537535 -0.6658863 -0.8841145 -0.8591107
-2.2376368 -1.7327062 -1.7603668 0.09435635 -0.26936108 -1.25823 -1.3497207 0.062247742
0.62435 -0.2999432 -1.7596564 0.20701739 -0.66664535 -2.8083858 0.52158993 -0.14667913
-0.072599694 0.89935863 -0.07395908 -1.0653293 -1.9029105 -1.3215965 -0.02699353 -0.10183014
-0.6961053 -1.2186937 -1.614351 -1.0141044 -1.3012844 -0.8409542 0.041256122 -1.1639254
-4.4786344 -1.5531012 -3.2559338 -1.2203468 -0.6853598 -1.7005153 0.13499752 -1.2073746
-1.2723337 -1.8474846 -1.1330875 -1.1321024 -0.6236036 -1.6818246 -0.22631268 -1.9554944
-0.34133586 -1.0876012 -1.1397706 -2.6969337 -1.9067498 -3.3931017 -0.18434344 -0.58659154
00000000: dfad 82bf ba7a 423c 7261 bebf 8b52 babf
00000010: 79d8 dc3f 4741 08bf a2ec be3d 5ed5 f4be
00000020: 35cb 3bc0 8f68 26c0 1287 4ec0 9132 09bf
00000030: 981b 37be 45c7 17c0 2cf8 02bf 01ab 4bbf
00000040: 6786 dcbe 3d96 12c0 6d01 06bf 02ff b6bf
00000050: f76b 8abf 2924 ecbe 48b3 25bf 706e 8ac0
00000060: b3c8 90bf bd8a 56c0 4986 693f 232a 81c0
00000070: 5b57 a5bf ce11 5bc0 2818 56bf d949 2d3e
00000080: d742 04bf 11b7 48bf 3f21 ba3e 4ff1 b1bf
00000090: 548d e6bf f278 433f 9339 523f 538a bfbe
000000a0: 0fb0 903f aed6 babe 6be0 f9bf 3e25 36c0
000000b0: fd08 72bd aab0 cbbf a71c 02c0 5b9c debe
000000c0: 8a7d 4bbd 86ec c23e e53f 4ebe 9050 213d
000000d0: 0112 aabf 461f e0bf 6830 993d 7743 33bf
000000e0: 7851 0abf b119 c6be 7688 17bf 5df5 b8bf
000000f0: 6ee6 bdbf 6acf 66bf e6ec fa3e 5abf 37be
00000100: c2b4 0cbe 8040 cbbe 16f9 1ebf 6d63 a740
00000110: f805 3c3f bc4d 52c0 3677 21c0 6a9f 593f
00000120: fae3 8ebe 2575 9ebe 2941 9a3f 7407 b03f
00000130: 50d8 c640 7565 123f 0e16 b540 b3eb 243f
00000140: fddf 223f 75b6 e5bc ed39 9340 d8e5 ad3f
00000150: 3196 0bbe e830 b040 924a f8bf e9db 1341
00000160: 4561 b9bf 654c aa40 b646 55bf 67e4 38bf
00000170: 7dfd aa40 9083 8bbe 06d3 493f aa7e cb3e
00000180: 0f5f 25bf c76a 94be 11cd c6bf 6d7d d2be
00000190: 07ca 8f3e c30f 44bf 3a1a 243f 3f50 f63e
000001a0: d775 753e 5b39 97bf 5533 9d3e 4008 cdbe
000001b0: cf8b 6cbe 406f 00c0 db4e 91bf 918c 55bf
000001c0: 71fb 873e d67b a2bf 8b16 ebbe e852 1cc0
000001d0: 7e26 05bc 599b 67bf 60fd 53bf d4df 423f
000001e0: 70b2 813f edf0 32bf 7829 0c3f f53f 2bc0
000001f0: 01e9 32be 8558 c8bf 21bc 843f 2b18 e5bc
00000200: df1b 3bc0 5b2a d5c0 90ab 9dc0 0c97 29c1
00000210: 52b0 12c0 034e 0ec0 a2df abbf 3f3d 2ec0
00000220: 9d1d a7c1 92e7 85c0 baba a7c1 0ae1 8abf
00000230: 9f50 37c1 4e8b 3bc0 ca50 00c1 6e17 a2c0
00000240: aedf a8bf dedb 8bc0 6ac7 d2c0 7044 34c0
00000250: 974d 89c0 ba5a 16c1 3dc1 c0bf b50d 88c1
00000260: c07b 05c0 365f 1dc1 1763 8b3f 8b32 1bc1
00000270: 957d ddc0 4f01 37c1 d4a6 8bc0 1914 53bf
00000280: 9588 d1bf 7db9 bbbf 638e ccbf 6c2c 133f
00000290: b6b9 47c0 e08d 06c0 a704 dcbf f571 21bf
000002a0: d7dd 19c0 9d5b cabf 7d0f b8bf e5b0 4cbf
000002b0: 6cf9 83bd 1980 03c0 ac1e 683d 1cc8 49be
000002c0: 661b 82bf 5465 1fbf 570d a0bf 19d4 b03e
000002d0: 3201 f0bc ae6c 83be 03a5 0ebf 2054 903e
000002e0: 5d3d 71bf 9695 723e 6763 5fbf 9e12 73bf
000002f0: a45c 79bf 5d63 77bf b5c6 17bf e9cd 2bbf
00000300: f2e1 01bf 08d6 39bf 6398 18bf e277 9bbf
00000310: 32ae 93bf 8677 2abf 5455 62bf aeee 5bbf
00000320: 7135 0fc0 51c9 ddbf b353 e1bf e73d c13d
00000330: b2e9 89be ae0d a1bf a6c3 acbf 7df7 7e3d
00000340: 67d5 1f3f 2892 99be 6c3c e1bf 5efc 533e
00000350: 45a9 2abf 98bc 33c0 eb86 053f 0e33 16be
00000360: 26af 94bd 5e3c 663f dc77 97bd b65c 88bf
00000370: 9292 f3bf 132a a9bf 8921 ddbc 528c d0bd
00000380: f533 32bf 28fe 9bbf 0ea3 cebf 2cce 81bf
00000390: 7d90 a6bf c648 57bf 2efc 283d 82fb 94bf
000003a0: f950 8fc0 05cc c6bf 3861 50c0 5334 9cbf
000003b0: bd73 2fbf 7caa d9bf ca3c 0a3e 408b 9abf
000003c0: d5db a2bf 607a ecbf 0309 91bf bbe8 90bf
000003d0: 7ca4 1fbf 0746 d7bf 83be 67be a44d fabf
000003e0: 93c3 aebe 8436 8bbf 01e4 91bf 909a 2cc0
000003f0: 6110 f4bf 9428 59c0 87c4 3cbe dd2a 16bf

weight_dict.b_gc_1 f4 [1, 32]
-3.63197 0.5629792 -3.2087767 -5.7225766 -1.9794902 -3.8083928 -6.0945625 -1.0794762
2.0668933 -0.7962895 1.9837272 -11.715817 -9.277325 -4.2979565 -6.470384 -0.6704968
-9.529348 -1.4293222 -5.5704927 -8.143406 -0.3587044 -5.994138 -2.6024685 -5.068557
-4.013621 -5.3572865 -6.0267015 0.18139346 -6.470752 1.0924741 -1.5156499 -4.7759275
00000000: 3272 68c0 681f 103f 995c 4dc0 591f b7c0
00000010: ef5f fdbf b5bc 73c0 a806 c3c0 472c 8abf
00000020: fb47 0440 a1d9 4bbf c6ea fd3f fd73 3bc1
00000030: ec6f 14c1 dc88 89c0 630d cfc0 aea5 2bbf
00000040: 3678 18c1 08f4 b6bf 7a41 b2c0 644b 02c1
00000050: 1aa8 b7be facf bfc0 d88e 26c0 9e31 a2c0
00000060: 956f 80c0 e46e abc0 bdda c0c0 35bf 393e
00000070: 6610 cfc0 31d6 8b3f d100 c2bf 66d4 98c0

weight_dict.W_bi_1 f4 [16, 32]
0.6264999 0.99289984 0.96509284 -1.8597264 -3.7830553 0.8817699 0.86933476 1.1177166
3.4246485 1.4580945 4.3212247 2.591255 -1.7748814 1.419355 -1.3520259 -0.13940613
0.86255485 1.1570905 -0.6566749 2.4230914 1.536879 -1.3334774 0.7638614 -4.156427
0.7609378 1.884678 -0.14601707 2.3679352 -1.6133754 2.576984 0.9725973 -0.8483752
0.6773201 0.3971829 -0.46053493 -1.915153 -0.6472107 -0.19582069 -1.0063355 -0.07477143
2.9866896 -0.3919591 -3.0081458 0.5333784 -4.441514 -0.5411385 -2.3409553 -0.527472
-5.183875 -0.9196344 0.7486536 -2.7938054 -0.013821242 0.36464524 -0.2826028 0.7371049
-0.14788102 -2.6823986 0.24329555 0.044461016 1.0613632 0.1368924 -1.4479592 -0.40406823
-24.990234 -22.887579 -38.370335 0.109785356 -2.3975902 -2.263534 -1.0770139 -4.062373
-52.10555 -28.269926 -36.676254 -27.150654 0.07622701 -23.252666 0.11368672 -13.11317
-24.046118 -27.473942 -0.1459526 -29.117865 -13.259108 -0.12519081 -1.5874307 -0.011455484
-0.63667196 0.072377466 -0.35765457 -36.370125 -0.54679716 -29.470839 -5.0739603 -2.2134864
-2.1774886 0.9271281 0.2999911 -0.6313738 1.3317363 0.83620775 -0.54853624 0.7610241
1.9898812 0.19446267 3.0104096 -0.32247323 -0.92673445 -0.6309076 -0.41614443 1.1077763
-4.371044 0.7328356 -3.102726 0.9041229 1.6804551 0.41590285 1.0114934 -0.36176592
0.98807263 -0.0858682 -1.054517 1.6014175 -5.8103695 1.7592691 1.2333016 1.2471511
0.97862166 1.3670218 1.1603112 -5.784456 0.5771979 -0.23486346 0.08467182 -0.3470263
2.7551417 0.6476784 -0.04406402 0.61942184 0.41307822 0.87671024 -2.8374708 0.5865497
0.46170992 1.0913986 0.35516727 0.7951858 0.07353123 -5.9602633 -0.19059241 -13.25917
-0.71416557 -5.4680624 -0.15509462 2.4510636 0.4264887 1.5532241 0.34600693 0.59150994
0.75790256 0.5683299 0.8512901 -2.7614949 0.42859745 0.66269535 1.5397432 -0.22115317
1.1551274 1.2116572 0.7013939 -1.0103112 -0.71396196 0.20708703 -2.0788171 -0.13430424
-0.88787806 0.112272374 0.3196658 -1.2293625 0.9323935 -0.109344676 0.17933564 -3.1771278
1.0312699 -1.7378248 1.6614666 0.17350085 -1.1162356 0.22499439 -0.026821421 -0.06600185
0.13596265 0.41500857 1.3857324 0.3890455 -0.25469238 0.7847048 0.111221306 0.40651283
1.9821517 1.6670758 1.1503773 -0.11304931 -0.4483836 1.6704696 1.1780244 -0.76793754
-0.9710917 0.91422075 0.77876115 0.87525237 1.0239137 -1.1364886 -0.73153335 1.0280018
0.32223675 0.79975915 0.54792196 1.3988643 -0.114815645 1.5003636 0.34866017 0.41129294
-1.0019058 0.61602175 0.89932007 1.1201372 0.44303423 1.3198929 -0.9519838 0.62794775
1.9288889 0.95693564 1.694894 -0.26561946 -0.7143058 -0.45258227 -0.004595578 0.5189226
-0.5650887 1.4406201 -2.315045 -0.18565328 0.10898388 1.2817934 0.3473045 0.08973707
0.4653353 -1.2344997 0.5831743 1.29998 0.1956449 1.301029 -0.0014660243 -0.4336387
00000000: 4c62 203f af2e 7e3f 5310 773f 840b eebf
00000010: 941d 72c0 acbb 613f b98c 5e3f 5611 8f3f
00000020: 712d 5b40 d7a2 ba3f 7947 8a40 1fd7 2540
00000030: 502f e3bf 6dad b53f 2f0f adbf 7bc0 0ebe
00000040: 65d0 5c3f 8b1b 943f d91b 28bf ee13 1b40
00000050: 73b8 c43f 63af aabf 6c8c 433f 7301 85c0
00000060: d2cc 423f 213d f13f 8085 15be 408c 1740
00000070: 1683 cebf 4eed 2440 23fc 783f 1e2f 59bf
00000080: da64 2d3f 8f5b cb3e 3ccb ebbe bc23 f5bf
00000090: 9aaf 25bf 3885 48be 9acf 80bf c321 99bd
000000a0: ec25 3f40 ddae c8be 7685 40c0 7d8b 083f
000000b0: e220 8ec0 0e88 0abf 36d2 15c0 6808 07bf
000000c0: 4ee2 a5c0 296d 6bbf c3a7 3f3f b5cd 32c0
000000d0: 7e72 62bc c8b2 ba3e 50b1 90be e8b2 3c3f
000000e0: 1f6e 17be 6bac 2bc0 7822 793e c11c 363d
000000f0: c0da 873f 852d 0c3e ba56 b9bf 08e2 cebe
00000100: 00ec c7c1 c319 b7c1 397b 19c2 25d7 e03d
00000110: 1e72 19c0 bedd 10c0 97db 89bf f6fe 81c0
00000120: 156c 50c2 cf28 e2c1 7cb4 12c2 8a34 d9c1
00000130: e81c 9c3d 7605 bac1 95d4 e83d 8bcf 51c1
00000140: 735e c0c1 a2ca dbc1 9974 15be 63f1 e8c1
00000150: 4e25 54c1 0532 00be ee30 cbbf c8af 3bbc
00000160: effc 22bf a33a 943d 801e b7be 027b 11c2
00000170: e6fa 0bbf 47c4 ebc1 e25d a2c0 c3a9 0dc0
00000180: f95b 0bc0 4458 6d3f 6f98 993e b7a1 21bf
00000190: 5676 aa3f b611 563f df6c 0cbf 7ad2 423f
000001a0: 6db4 fe3f 3921 473e 8daa 4040 361b a5be
000001b0: 783e 6dbf 2983 21bf e210 d5be 9dcb 8d3f
000001c0: 98df 8bc0 1d9b 3b3f 1093 46c0 9974 673f
000001d0: 2719 d73f 38f1 d43e 9e78 813f 6239 b9be
000001e0: 54f2 7c3f abdb afbd 6afa 86bf 40fb cc3f
000001f0: 8cee b9c0 bb2f e13f d4dc 9d3f a6a2 9f3f
00000200: f386 7a3f 92fa ae3f 1485 943f 431a b9c0
00000210: 3ec3 133f 0c80 70be 6b68 ad3d 6ead b1be
00000220: 3e54 3040 40ce 253f 797c 34bd 6e92 1e3f
00000230: fd7e d33e 1570 603f 1f99 35c0 1f28 163f
00000240: 3e65 ec3e f3b2 8b3f 7cd8 b53e 4c91 4b3f
00000250: 8b97 963d 7aba bec0 a82a 43be 8f25 54c1
00000260: 8ed3 36bf 5efa aec0 20d1 1ebe 3ade 1c40
00000270: ba5c da3e 0cd0 c63f d227 b13e 326d 173f
00000280: e705 423f 117e 113f 26ee 593f 55bc 30c0
00000290: 2071 db3e 67a6 293f 4e16 c53f fa75 62be
000002a0: 37db 933f 9517 9b3f 8d8e 333f e151 81bf
000002b0: 36c6 36bf 9f0e 543e 570b 05c0 0d87 09be
000002c0: fa4b 63bf 0fef e53d 3cab a33e c05b 9dbf
000002d0: 57b1 6e3f 1af0 dfbd c3a3 373e 1056 4bc0
000002e0: a700 843f 0b71 debf f0aa d43f 35aa 313e
000002f0: cfe0 8ebf ee64 663e 99b8 dbbc fa2b 87bd
00000300: cb39 0b3e 017c d43e ae5f b13f f930 c73e
00000310: 0a67 82be 6ae2 483f ffc7 e33d 7322 d03e
00000320: 26b7 fd3f bd62 d53f 903f 933f 6686 e7bd
00000330: 8992 e5be f3d1 d53f 81c9 963f 8e97 44bf
00000340: 7799 78bf 5f0a 6a3f e45c 473f 8a10 603f
00000350: 9b0f 833f 7578 91bf c545 3bbf 9095 833f
00000360: 37fc a43e 04bd 4c3f 9d44 0c3f fc0d b33f
00000370: 7724 ebbd ea0b c03f 9683 b23e fd94 d23e
00000380: 733e 80bf 9ab3 1d3f d739 663f a860 8f3f
00000390: 62d5 e23e 40f2 a83f 36b5 73bf 2fc1 203f
000003a0: d5e5 f63f bcf9 743f 49f2 d83f 46ff 87be
000003b0: bfdc 36bf ddb8 e7be 8196 96bb 1dd8 043f
000003c0: a7a9 10bf 3d66 b83f b329 14c0 e51b 3ebe
000003d0: f132 df3d ce11 a43f e5d1 b13e 12c8 b73d
000003e0: 6e40 ee3e 1604 9ebf e94a 153f bf65 a63f
000003f0: 2357 483e 1e88 a63f 9d27 c0ba e405 debe
